rm_auto_aim/armor_detector/model/lenet.onnx (onnx, 248674 bytes, 8 tensors)

conv1.weight f4 [6, 1, 5, 5]
00000000: 9403 2f3e 648c 79be 9d86 fd3d 9836 53be
00000010: e4d6 17bd e89b f1bc b2a4 8c3c 2f0a 39be
00000020: 5d9a d43e 4882 c6be 3c6c ac3d e71f 1b3e
00000030: 3be3 94bd 1cab 2e3d ff38 8abe cf27 1bbd
00000040: c1e1 98bd 29f0 a7bd 4968 483e 7cb4 f7bd
00000050: 7aca 973e df80 1f3e 48fc 633e ddf6 bfbe
00000060: 1745 22be c69c 553e 11b0 8f3e c628 2a3e
00000070: e056 7b3e 1d7f c13c afe8 313e 30e7 4a3e
00000080: 92a3 173e e244 9d3e e9fd 623e 8346 353e
00000090: f36f a13e 53db 963e 87b9 803e 0304 76bc
000000a0: c283 aabd 661e 673e 38d9 4a3e ffc5 a73d
000000b0: fd24 3e3d a7f9 c33d 8406 0d3e aecb 56bd
000000c0: f42a f43d 048a e73d 81a6 0d3e 2394 06bd
000000d0: ec40 d63d 94b4 b2be baa2 1bbe af51 1c3e
000000e0: 9d7f 843e 0636 9e3d aa74 b3be 68c3 45be
000000f0: c0f0 d5bb 5f19 603e 3be0 333e 4aa5 12be
00000100: dddc afbe fef0 1c3e 8dc1 993d ddc4 633e
00000110: c3df c13c 5a8e 27bd 33a7 cc3d 7af6 253e
00000120: 35d1 603d f202 14be 3492 1abe d999 14be
00000130: f8e0 82bc 9276 0c3d f6a1 f13d 40bc 4abd
00000140: 2612 29bd d46c 4b3d 26dd 0b3e 0759 503e
00000150: fb01 30bd 2504 4f3e 8937 dc3d eb68 2a3e
00000160: 168d 033e 0553 da3d 96a2 6a3e fbc6 983e
00000170: 72c3 8c3e 9194 203e 926b 2a3e 327d 853e
00000180: 143f 7a3e 971e 523e a73e 1a3e 4b47 443e
00000190: 70ce 603d 659d d23d 821c 183e e02d 893e
000001a0: edac 3a3e a8ca 773e 0015 60bd d17b 953e
000001b0: 5e3a 983e 13f3 2d3e 2feb 143e fbb5 e8bd
000001c0: 286d 7e3e 95c3 b7bc 151a 83bc 261f 47bc
000001d0: c630 81bd 64cb 903e 1ae5 8e3e a0db c13d
000001e0: 2288 babb 21a6 a3bd a9b3 e2bd 530a 3e3e
000001f0: 4055 393e 8f3e 893d d5c6 20be 03c6 243e
00000200: 69de a83d aae3 2d3e c5d8 c83c 8fea 57bc
00000210: f7fc 01bd b592 febd eca7 0d3c ca58 a23d
00000220: 12dd d23d a1d3 4f3e 0d35 403e d272 303e
00000230: ea1c 693d 0123 843e 1b39 953e 8155 4f3c
00000240: 9ce0 afbd 206a 693e 7bbf 9c3d d951 0d3e
00000250: 6713 233c 1bb0 193e
0.17091209 -0.24369961 0.12379191 -0.20626295 -0.03707017 -0.029493287 0.017168377 -0.18070291
0.4152402 -0.38771272 0.084190816 0.15148889 -0.07269903 0.04264365 -0.2699661 -0.03787976
-0.07464934 -0.08200104 0.19571032 -0.120949715 0.29646665 0.15576504 0.22264206 -0.3749303
-0.15846668 0.20860586 0.28064016 0.16617116 0.24544859 0.023620183 0.17373918 0.19814754
0.14808491 0.30716616 0.22167172 0.1770268 0.31530723 0.29464206 0.25141546 -0.015015605
-0.08325912 0.2257019 0.19809425 0.08192062 0.046421994 0.09569102 0.13772017 -0.052440338
0.11922255 0.11305621 0.13833047 -0.032856118 0.104616016 -0.34903395 -0.15198794 0.15265535
0.2587861 0.07725148 -0.35049945 -0.19312823 -0.006528944 0.21884678 0.17566006 -0.14320865
-0.34348193 0.15326306 0.0750762 0.22243066 0.023666268 -0.04090724 0.09992828 0.16207305
0.054887015 -0.14454249 -0.15094835 -0.14511813 -0.015976414 0.034292765 0.1179847 -0.049495935
-0.041277073 0.049664333 0.1365858 0.20346461 -0.04297064 0.20216425 0.1075278 0.16641586
0.12846789 0.10660366 0.22913584 0.2983931 0.27492863 0.15681674 0.16642597 0.2607208
0.24438125 0.20519482 0.15062962 0.19167821 0.054884374 0.10283927 0.14854625 0.26792812
0.18230028 0.24198401 -0.054707527 0.29196027 0.2973203 0.16987257 0.1454284 -0.11362835
0.24846327 -0.022432128 -0.016003648 -0.012153422 -0.06308131 0.28280175 0.27909166 0.09465718
-0.005692498 -0.07990671 -0.11069424 0.18558626 0.18098927 0.06701385 -0.15700848 0.1609116
0.08245546 0.16981378 0.024517426 -0.013178482 -0.031735387 -0.12430326 0.008645993 0.079270914
0.10296072 0.20295574 0.18770237 0.172313 0.05691234 0.25807956 0.2914513 0.012654663
-0.08587763 0.2279439 0.076537095 0.13800754 0.009953356 0.15008585

conv2.weight f4 [16, 6, 5, 5]
00000000: de19 99bd 39ec 383d 3a4f 70bd 8a81 b73c
00000010: 8f11 7a3d 632e 88be 25f8 e63c 6440 2a3e
00000020: 485c aa3d 9991 f33d e4d2 72be d556 9a3b
00000030: a3be d03d 4182 113e e36e c23d 497f 45be
00000040: 1227 7fbd bdde 0f3e bcce 2b3e 1360 733e
00000050: 0477 d2bd 7664 8fbd 1c1a b23c 204b 8a3d
00000060: e555 473e cb30 b83d b7a7 55bd 27fd 62bd
00000070: 1122 34bc ac15 4dbd 1486 2d3e 7ff9 953d
00000080: 5bd5 90bd a2f2 bc3a a22b 883b c3d6 1b3e
00000090: a8f9 043e dc2a 22bd 85c4 d5bd bea2 babd
000000a0: 02fd d43d 5536 5f3d 5211 9ebc beb2 d93b
000000b0: 519b e1bc f871 913d 1ddb 173e 4323 43bc
000000c0: ecc7 bb3d 0d93 74bd 7983 063e 51b8 16bd
000000d0: ed39 3abe 5b69 47be 357f 09be e0e6 153e
000000e0: b47f 12bc c6ef d4bd ceb2 28be 883a 24be
000000f0: d548 57bd b9ed b1bc 624e 8c3d 583e 1dbe
00000100: 43bf 74be 6d82 98be 9ccd a3bd 0eae 95bc
00000110: 2044 8bbc 959a d6bd 555e 49be 124a 24be
00000120: d1b2 c83c 9cfa 743d b91d b93c 3d02 79ba
00000130: 7594 9b3d 2c98 2fbd 3efc 88bd 2574 e0bd
00000140: d0f0 153b 4c7e ac3d 788c 8bbc 5efb f5bc
00000150: 1c7c 74bd a3ba bc3b 46a2 8a3d 60e7 9e3d
00000160: f9bc 96bc 2c74 cabd 5ba7 9dbc 4bb0 373c
00000170: 23b3 f23c 90b7 13bd 620f b0bd 49fc 4a3c
00000180: b38e d43d e4b8 8b3d f1a6 913d 9228 07bd
00000190: 042c fc3c 546d 84bd 49df 8dbd c456 bcbd
000001a0: 8bd0 80bd df34 f23d ae07 2d3d f1dd 82bd
000001b0: 7705 94bd 5614 6dbc 9c3c 293e 7a6b 3cbc
000001c0: 265a 5dbd dd2b 4cbd 4d2d 36bd 5159 fa3c
000001d0: d43e e93d 4d8d efbb 885d 96bd 7016 39bd
000001e0: 905c 61bc 90cd 0a3e b5d6 493d d4db 98bd
000001f0: 4fac abbd 1dcb 703d 64d5 dd3c 478e 2dbd
00000200: e058 e0bd bc0d 77bd 146f d23d 2300 f73b
00000210: 56a5 40bd 3f08 f3bc ac05 72bd a69f f53c
00000220: 256d 213d b418 573c 7eaa a43c 943a a8bb
00000230: 2175 d7bc 19c4 c43d 4715 163d 2e50 213d
00000240: f1ed cfbc bd38 a13d 9cc6 7c3d 6c29 aa3d
00000250: ad16 803d 8714 49bd b656 61be 2cf9 fabd
00000260: c60b 2dbe e8db 43be e185 803b 5fe9 a1be
00000270: e13c 3dbe 3d3e ffbd 23e1 f3bd 496b b4bd
00000280: 703c a1be 2d57 debd 264f 19be 384e 78be
00000290: ebdf 2dbe 2d16 71be 5baf 3dbe c0ea f1bd
000002a0: cd58 f4bd 13b3 9bbd aec5 70be d571 8ebe
000002b0: d489 49be 012c 23be 2005 37be 7017 843d
000002c0: 899a da3c 660e afbd 2a2d c6bc 703e 843c
000002d0: 5c25 13bb ba7f 2a3d 3ad2 0dbd 72ee 693d
000002e0: de7c 32ba 29d1 dabc 9fee 833c 88c6 253d
000002f0: 37b2 ae3d 52c0 00bd e372 1abc b34e 843d
00000300: 76c8 9dbc cb9c 75bd b881 8e3d 1397 4838
00000310: 711d 0fbc 61e0 a7bd 187c 91bd de24 40bd
00000320: c641 f3bc d132 463e 783e 41bd ef8d 773c
00000330: d91c ba3d 6733 08be 8d19 0e3e 3d84 6f3d
00000340: 7a4d 30bd 3d8b b73d baed 4cbd 48f2 5a3e
00000350: 40c0 823d c382 28be d518 133e aa25 bb3c
00000360: 13a0 eb3d 615e 943e d0f8 8ebd aae9 273e
00000370: 788e 0a3e c672 2a3e 05bb 753e 932f 923d
00000380: c0a1 613d 85bc 903d b2e0 a23d ca96 913d
00000390: 61c6 8bbb 80b4 313d 2dd9 2ebd 252e 56bd
000003a0: 3285 a23c 847a e33c 3a85 4a3d 06d0 0b3d
000003b0: 385d 8cbb b1b9 8abd 8d7f d93b 1b82 213c
000003c0: 2b17 203c ffc2 36bd d176 f2bb 8aec 08bd
000003d0: b7ba 053d 388e 9f3d 0e8f c53d 8bbc 3ebd
000003e0: e127 323d 61d8 863d 4e2f f83c 63c9 38bd
000003f0: f0c4 49bd afd9 64bd a607 2e3c 0644 7e3d
-0.07475637 0.045147154 -0.058669306 0.022400636 0.0610519 -0.2659789 0.028194496 0.16626126
0.083183825 0.11893005 -0.23713261 0.004710058 0.10192611 0.14209844 0.09493806 -0.19286837
-0.06229312 0.14049812 0.16778082 0.23767118 -0.10276607 -0.07001583 0.021740966 0.0675261
0.1946636 0.089936815 -0.0521619 -0.055417206 -0.01099445 -0.050069496 0.16945678 0.07322978
-0.07071944 0.0014415572 0.004155592 0.15218644 0.12985861 -0.039591655 -0.10437874 -0.09113072
0.1039982 0.054495174 -0.019295368 0.006643622 -0.027539881 0.07101816 0.14829679 -0.0119102625
0.091689914 -0.05971055 0.1313609 -0.03679687 -0.1818616 -0.19473784 -0.13427432 0.14638853
-0.00894158 -0.10397296 -0.16474459 -0.16037953 -0.052559692 -0.0217198 0.06850888 -0.15355814
-0.23901086 -0.29787007 -0.07998201 -0.018271472 -0.017000258 -0.10478703 -0.19664891 -0.1604388
0.024499329 0.059809312 0.02259718 -0.000949893 0.07596675 -0.04286973 -0.066887364 -0.10959653
0.002287913 0.08422527 -0.017034754 -0.030027088 -0.059688672 0.0057595535 0.067692325 0.07758975
-0.018400656 -0.09885439 -0.01924484 0.011211465 0.029626435 -0.03606373 -0.08596684 0.012389251
0.1037878 0.068223745 0.0711192 -0.032997675 0.030782707 -0.06466165 -0.06927354 -0.09196237
-0.062897764 0.118264906 0.042243652 -0.06389988 -0.07227605 -0.0144701805 0.16527027 -0.011500234
-0.05404105 -0.04984652 -0.044476796 0.030560168 0.11388937 -0.0073105455 -0.073420584 -0.045187414
-0.013754979 0.13554978 0.049277026 -0.07463804 -0.08382475 0.058787454 0.027079292 -0.042372014
-0.109544516 -0.060315832 0.10275093 0.007537858 -0.047032677 -0.029667018 -0.05908744 0.029983353
0.03941073 0.013128448 0.020100828 -0.005133936 -0.026300969 0.09607715 0.036641385 0.039383106
-0.025382014 0.0787215 0.061712846 0.08308682 0.06254325 -0.049091842 -0.22005734 -0.12254557
-0.16899022 -0.19126856 0.0039222096 -0.3162336 -0.18480255 -0.12463043 -0.11908176 -0.088095255
-0.31491423 -0.10856471 -0.14971599 -0.24248588 -0.16979949 -0.23543616 -0.18523924 -0.11812353
-0.11931 -0.07602515 -0.23512909 -0.27821222 -0.19681484 -0.15934755 -0.17873049 0.06449783
0.026685016 -0.08547668 -0.024191458 0.016143054 -0.0022452688 0.041625716 -0.034624316 0.057112165
-0.0006808768 -0.026711063 0.016104994 0.040472537 0.085300855 -0.03143341 -0.009426805 0.06460323
-0.019260626 -0.059963983 0.06958336 4.7824415e-05 -0.008735047 -0.08197094 -0.07103747 -0.04691016
-0.02969445 0.19355322 -0.047178715 0.015109523 0.090875335 -0.13300858 0.13876934 0.05847572
-0.043042637 0.089621045 -0.0500314 0.21381485 0.06384325 -0.16456132 0.14364941 0.022845108
0.11505141 0.28978255 -0.06981051 0.1639773 0.1353091 0.16645345 0.23997124 0.0713798
0.055085897 0.07067207 0.079530135 0.07108839 -0.004265592 0.04338503 -0.042687584 -0.0522901
0.019838903 0.027768381 0.04944346 0.034133933 -0.0042835735 -0.06773699 0.0066375197 0.00985768
0.009771149 -0.044619557 -0.007399418 -0.033428706 0.03264877 0.07790798 0.09646426 -0.046566527
0.043495063 0.0658424 0.030295994 -0.045113932 -0.04926008 -0.05587166 0.010621941 0.06207659

fc1.weight f4 [120, 400]
00000000: 9512 8bbc ff7f 5b3d f167 223d cfde abbc
00000010: 0964 993c ceb6 14bd 7eb6 823b 49e9 dbbb
00000020: 4877 e9bc 5931 5a3d 8ace d23c 20fc dfbc
00000030: 4500 53bd 7aa5 39bb e7c8 17bd 2986 e93c
00000040: 306f e23c 3e8b c7bc 75cb bebd 3089 f2bd
00000050: 0d40 b83d 37c4 6ebc 9dc6 b83c 458f 04bd
00000060: da00 b5bd bf5e 813d 5e81 0d3d 3d4a 503d
00000070: f69c c03c 5983 0ebd fd22 e4bb d4a3 0bbd
00000080: ae15 0d3c 912c 1dbd 5fa4 67ba 6be1 e3bc
00000090: 0fa5 b93c 414a 813c 3ca5 723d 91a4 bb3c
000000a0: b316 5e3d d8d0 3c3c a255 a7bc 6526 66bd
000000b0: e95d 0abc 3781 4c3d 527f 943c e470 02bd
000000c0: c116 36bc cd50 a6bb bead 9f3d 42e3 4a3c
000000d0: 3ec6 ff3c ec36 eb3d 260a 22bc 28f8 6b3d
000000e0: bc67 96bc 7504 80bc ed81 d23c 93f5 fb3c
000000f0: 0374 cb3d fb4e 2fbc 851d 02bd 67e0 463d
00000100: 454a ac3d 7661 ebbb 9428 cf3c c71a 343d
00000110: fed4 923d 89c5 3bbb e317 72bd e37e 903c
00000120: dd84 ce3b 52c1 21bd 2161 1cbc fbfe e6bc
00000130: c2bb 7e3a 5a34 723c b99e 1f3d 0b47 fd3c
00000140: 7bc5 10bd 84d6 4a3b ca6e c6bc 3d26 d3bc
00000150: 4bce 853c cb1e 9ebd 6840 63bd 0558 26bd
00000160: 0a13 03bd e554 1e3d abc4 15bb 3804 b8bd
00000170: 1c67 acbc 755a abbc 03e4 a1bc 71f8 12bd
00000180: 7324 3d3d c41b 263d 3005 2bbd 360e 33ba
00000190: bac4 793d fe6f 483d 7ea9 27bd 6ab8 41bd
000001a0: 5472 ecbc f154 80bd 9d59 efbc af8c 27bc
000001b0: 6a9f 2dbc d3c9 553b 69c7 5bbd 58a1 20bd
000001c0: 88c5 e43c 12c3 88bc 0ca9 f6bc c434 cabc
000001d0: 917d 88bc 567e 843c 8a2b 80bc 2029 a03d
000001e0: 2326 d1bd c945 653d e305 21bb a25f 8a3d
000001f0: aaa4 863d 9537 7cbd 3717 693c 583a 9fbc
00000200: 00a5 6b3d 281d 61bc 4823 85bd 7e48 9dbd
00000210: 719a 08bc 116e cdbb e6d9 c6bd 1919 c5bd
00000220: 2517 163d b936 2d3d c0ce 923c 0186 c5bd
00000230: 661f 2f3d 744d 983c fff1 ff3b 2f5b bcbc
00000240: cd27 2ebd d9ba 17bd 00c4 07bd dd0b 32bd
00000250: 211c b5bd 4579 25bd aced 753d b0dc ae3a
00000260: 6ca9 63bd 3257 bfbc a641 b0bd 3274 d2bc
00000270: eeaa 52bc 4884 46bc fe07 ac3c 465d 723c
00000280: 6bb7 33bd 17b8 18bc a62a 34bd 6631 353d
00000290: 85e2 92bc 0cad fb3c 46bc 59bb cb73 9b3c
000002a0: ee4f 933c 9304 91bd 9d9f ab3d a7b3 5c3d
000002b0: fe0f 883c 3a7a f4bc 9493 613d 3a53 0b3d
000002c0: 853e 443d c91a b63b de39 833c f06a 79bd
000002d0: 6281 7ebc bd24 74bb 8587 85ba 9c88 8abd
000002e0: bb60 c8bb d244 573d 1db0 c4bc 63fe e83c
000002f0: d05d 1bbd 8627 a6bd e298 883d f305 9abd
00000300: a4dc ecbc 4493 a3bc 4634 3bbd 04a7 193d
00000310: 2f26 c0bc c636 60bd d83d 34bd 776b 9ebc
00000320: 5157 2b3d 684e 09bd dde9 05bd cf3f 09bb
00000330: 9334 8c3c 7f01 943d 6907 d0bc 3656 a1bc
00000340: 8d7e 473d 89d4 413c cf78 8f3c ee74 b23b
00000350: 4cb9 c43c ec65 a2bc c3e4 323d 9b0d 5a3d
00000360: 6a0c 2b3d d882 4c3d 1686 2fbb d30c 8a3c
00000370: 7a9b 45bc 3b4c 743d f9ab bfba a5a5 d4bc
00000380: 42df 583d c081 f23c ae36 5d3c 408c 1cbd
00000390: 04e0 d83d 0d22 f7bc 489e 863c f6ec aa3c
000003a0: 7b2e 613b 0486 ab3d ae1e aa3c 6ef2 9e3d
000003b0: 1b00 79bc 24aa 813b a89c 843d c9e7 0c3d
000003c0: 2e99 03bd db47 ddbc 8e71 bc3c 6369 c23c
000003d0: a51a 523d ea34 9a3a a230 e63c 7fea 813d
000003e0: 9244 913c 1e30 3a3d 12c8 3c3d e9c0 81b9
000003f0: 3904 463c 4466 64bd 4409 afbc f4d2 323d
-0.016976634 0.053588863 0.039649907 -0.020980267 0.018724458 -0.03630715 0.00398904 -0.0067111594
-0.02849926 0.053269718 0.025733251 -0.027341902 -0.05151393 -0.0028327391 -0.03705683 0.028506355
0.027640909 -0.024358388 -0.0931615 -0.11842573 0.08996592 -0.014573148 0.022555644 -0.032363195
-0.08838053 0.063168995 0.034547202 0.05085205 0.023512345 -0.03479323 -0.0069621787 -0.034091786
0.008611126 -0.03837258 -0.0008836444 -0.027817449 0.022661714 0.015782477 0.05923961 0.02290562
0.054220866 0.011524402 -0.020426575 -0.05618896 -0.0084452415 0.049927916 0.018127117 -0.031845942
-0.011113823 -0.00507555 0.077968106 0.012383284 0.031222459 0.11485085 -0.009890115 0.057609707
-0.018360011 -0.015627125 0.025696719 0.030756747 0.09934237 -0.010699983 -0.031766433 0.04855385
0.08412603 -0.007183249 0.025287904 0.04397085 0.07169531 -0.0028651676 -0.05910481 0.01763863
0.0063024596 -0.039491005 -0.009544642 -0.028197756 0.0009717309 0.014782989 0.03896973 0.030917665
-0.035344582 0.0030950615 -0.02422275 -0.02577507 0.01633372 -0.07720717 -0.055481344 -0.040611286
-0.03200058 0.03865518 -0.002285282 -0.0898518 -0.02104526 -0.020917157 -0.019762045 -0.035881463
0.04617734 0.040553823 -0.041752994 -0.00068304257 0.06097863 0.04893493 -0.040933125 -0.04729501
-0.02886311 -0.06266201 -0.029217536 -0.010226413 -0.010597089 0.0032621517 -0.05365697 -0.03921637
0.027926221 -0.01669458 -0.030109905 -0.024683364 -0.016661437 0.016173523 -0.015645761 0.07820344
-0.10212352 0.055974755 -0.002457016 0.06756522 0.06574376 -0.061576445 0.014226726 -0.019437
0.057530403 -0.013739862 -0.0650087 -0.076798424 -0.008337603 -0.0062692245 -0.097095296 -0.096239276
0.036643166 0.042288516 0.017920852 -0.096447 0.042754553 0.01859162 0.0078108306 -0.022992698
-0.042518426 -0.037043426 -0.033145905 -0.043468345 -0.08843256 -0.040398855 0.060041115 0.0013340916
-0.055581495 -0.023357008 -0.086062714 -0.025690172 -0.012858136 -0.012116499 0.020999905 0.014792746
-0.043876093 -0.009321234 -0.043985985 0.044236563 -0.017930279 0.030722164 -0.0033223792 0.018976113
0.01798245 -0.070809506 0.08380053 0.053882267 0.016609188 -0.029843438 0.055072382 0.034014918
0.047911186 0.0055573923 0.016018804 -0.060893 -0.015533777 -0.0037253343 -0.0010187483 -0.067643374
-0.006115047 0.052555867 -0.024009759 0.028441614 -0.037931263 -0.08113007 0.06669785 -0.07520666
-0.028913803 -0.019967683 -0.04570415 0.037512794 -0.023455707 -0.054739736 -0.04400429 -0.019338353
0.04183132 -0.03352204 -0.032693733 -0.0020942574 0.017114913 0.07226848 -0.025394158 -0.019694429
0.048704673 0.0118304575 0.01751366 0.005446068 0.024014138 -0.01982399 0.043675195 0.05323563
0.041759886 0.04992947 -0.0026782802 0.016851818 -0.012060994 0.05964301 -0.0014623395 -0.025957892
0.05294729 0.029602885 0.013501806 -0.03821969 0.105896026 -0.030167604 0.016432896 0.020864945
0.003435998 0.08375171 0.020766582 0.077610835 -0.015197779 0.00395705 0.06475192 0.034400735
-0.032128505 -0.027011802 0.023003366 0.023731893 0.05129494 0.0011765037 0.028099362 0.06343555
0.017732892 0.045456044 0.04608924 -0.00024748527 0.012085968 -0.05576159 -0.021366723 0.04365821

fc1.bias f4 [120]
00000000: f886 1fbd 57d8 3abd 8e3f 7a3d 2279 8c3d
00000010: c606 cc3c ae81 0cbd bc48 9a3d d423 a43b
00000020: 4a8c 323d 7f89 a2bd f601 5b3c da83 a13d
00000030: ef2e f93c 85de 943d 2299 773d 207b c2bb
00000040: e5ad 12bd 9d08 d23c e429 f3bb 9faa 41bd
00000050: bcbf 7b3d 4215 5abd 9115 c13d 3d73 2c3d
00000060: c56d 40bd deee 2e3d f384 a63d 7fb6 5d3d
00000070: a3f5 16bd 3a26 10b9 49d1 8e3d c12f f33d
00000080: 06c5 36bc 4be3 3d3d 5b24 cabc 1f0d 1abc
00000090: c18e 13bd 3fa0 18bd 9b6a 803c 27a8 6c3d
000000a0: c933 83bd ba64 c5b8 8388 06bd 50a3 acbd
000000b0: a874 063c 97e1 643b 695a 723d de22 7d3d
000000c0: 7c4a 403d 7689 8e3d cc96 3d3d 2a14 cdbc
000000d0: 4656 45bd 7a3b e9bb 58a2 a83c b6fd da3c
000000e0: b0de ccbc 9fd5 8abc 5b41 7b3d b68d aa3c
000000f0: e960 323c 2ee7 f4bc fbf6 923d 68e6 56bd
00000100: 5baa b8bb ef33 b8ba f832 b3bc 52c1 6cbd
00000110: 2a78 08bd c59f 3a3c 982a ac3d 7bd9 c0bc
00000120: a258 a83d 9ee2 b53d 82b2 0e3d b988 713d
00000130: 61a5 383d 9864 0d3d 5cea 4fbc cf37 91bd
00000140: 98a3 453d 2a24 d43c 36b7 853c 3d32 c93b
00000150: f655 8bbc c4cb 8b3d 957a 2f3d 0ece 2fbd
00000160: d285 8a3b 1e33 a93c 528e 7e3b 0c52 11bd
00000170: aba5 5d3d 1b85 c6bc 34d8 153e 71ab 8a3c
00000180: 7196 aabc d7f3 86bc 1d44 c03c a984 a03d
00000190: 41b2 e93d b0f1 143c 5258 e43b 53b3 833c
000001a0: f1dd 853d 3f71 6abd 19f3 9dbd 7ab4 49bd
000001b0: 8646 91bd 51c4 d13b b892 7abd 4ac9 5c3d
000001c0: e1ee 653d a936 133d 850c 2c3d 83e2 8c3c
000001d0: aeab cfbc 9e6c 003d 738c 8bbc 7ae2 3abc
-0.038947076 -0.045616474 0.061095767 0.06859042 0.024905574 -0.03430336 0.07533404 0.005009154
0.04359082 -0.079363815 0.013367167 0.07886477 0.030417887 0.07269005 0.060448773 -0.005935088
-0.03581037 0.025638873 -0.0074207652 -0.047281858 0.06146215 -0.05324293 0.094279416 0.042102087
-0.046979684 0.04270827 0.08130827 0.05412912 -0.03685535 -0.0001374715 0.06973512 0.11874343
-0.0111553725 0.04635934 -0.024675539 -0.009402542 -0.036024813 -0.037262198 0.015675833 0.05777755
-0.064063616 -9.412454e-05 -0.03284503 -0.08429587 0.008206524 0.00349245 0.059168253 0.06180083
0.046946034 0.06959812 0.04628639 -0.025034029 -0.04817798 -0.007117686 0.020585224 0.026732307
-0.02500853 -0.016947566 0.061341625 0.020819526 0.010887363 -0.029895391 0.07176014 -0.052465826
-0.0056355423 -0.0014053563 -0.02187489 -0.057801552 -0.033317722 0.011390631 0.084065616 -0.023541203
0.0822003 0.088811144 0.034838207 0.05896828 0.045079593 0.03451976 -0.012690153 -0.07090723
0.04825172 0.02589615 0.016322713 0.006140022 -0.017008763 0.068259746 0.042841513 -0.04292112
0.0042273784 0.020654257 0.0038842154 -0.035478637 0.05411307 -0.024233392 0.14633256 0.016927453
-0.02082369 -0.016473694 0.023469979 0.07837803 0.11410952 0.009090826 0.0069685364 0.01607672
0.065364726 -0.057236906 -0.07712383 -0.04924438 -0.070935294 0.0064015766 -0.06117508 0.0539029
0.056136016 0.0359408 0.042004127 0.017197853 -0.025350418 0.031353585 -0.017034745 -0.011406535

fc2.weight f4 [84, 120]
00000000: fb44 e2bc c5dd 8b3d d6ed 463c 0bf3 0d3d
00000010: 002d 4abe 952d 3f3d a5a8 c53c 8464 96bc
00000020: c33a 453d 2e33 cfbd eed3 d0bd ac21 72be
00000030: ddb8 783d 1743 023d 81be adbd 870a 1abe
00000040: bec7 f2bc d7ca 863d a033 f43c 08b0 bbbd
00000050: 6f49 e73c 8b96 673b 252c 8cbd 646f bb3c
00000060: 4a93 ad3d 020a 4abe 7d7f 933d 9a84 f5bc
00000070: dac2 4fbc e2c9 81bc 34e6 2b3d 481c acbd
00000080: da09 d33d e129 bdbd f99f a83d cc21 73bd
00000090: 42d5 d23b 70c0 1f3b 4874 313d 0f56 47bd
000000a0: 4594 39be 042f bb3d cbdf cb3c a02b b2bd
000000b0: d1f3 ec3c a466 c6bd 1c10 d23c 867e 843a
000000c0: e428 02be d112 a6bd 0b93 3ebd 51af 92ba
000000d0: a8d1 1f3d 015b b2bd e492 68bd 6635 fe3d
000000e0: 9eb9 a63b 51c0 e2bc dd58 17bc 53b9 45bd
000000f0: 9e0b 933c 6124 15be 569c 14be 556a 943d
00000100: d632 8b3d 5458 b0bd ef56 30be f33a 5ebe
00000110: 6374 cfbb eaf4 d93b a2bd 79bd fde1 86bd
00000120: 58cb b2bd 8d2c 0cbd 4067 223d be31 403d
00000130: d95e f7bc 051c a13d 7da9 33bd de45 0fbd
00000140: 9f7e 883d 763a 943d 54e8 103d bc47 dbbd
00000150: 33d7 c0bb a107 84bb c9a7 dd3c f84f d2bd
00000160: dccf bb3d 11d6 4c3d 6aad 9eba 660f c53d
00000170: 5296 e03b 427e 26bd c480 38bd a692 01be
00000180: 4ae7 873c 9540 743d eed8 06be bddd c63d
00000190: ed91 663d 6b2c 94bd 901a 4dbe 5851 8d3d
000001a0: 8515 a83d 21fe 63be deec 0fb9 31ff de3d
000001b0: 2f36 a9bd 147e 0b3d e7f4 923d 7a44 abbc
000001c0: 65cc cbbb 7ad1 e6bc 828f 9ebd 695b 3cbe
000001d0: 5200 52be c74f 0c3e 0dd4 303e 6509 eb3b
000001e0: b40a 733d aa5e a23d 08c1 23bd ee30 e03c
000001f0: c44a af3d 5f64 5dbd 9c09 2e3d 8557 80bd
00000200: 9e03 ddbb d561 123e c345 1dbd 45d7 fa3d
00000210: bc3d 7fbd 4bc8 bd3d 3698 783d 3575 433d
00000220: 08cd 803d e3d8 803d 3e4d 95bb b46e 453d
00000230: 2dd4 543d 6b15 85bc 11c8 c13d cce3 4abd
00000240: b3cb b73c 9911 c33d 51a9 33bd 3cb7 b23d
00000250: 49fe 543d ab26 54bc bc59 133e 41b2 783d
00000260: a4df 9d3c fb9c 59bd 95ab 51bd a673 4b3e
00000270: 7833 24bd 7778 95bc 629e 0cbd 5300 733d
00000280: ca6e 363d 55f4 35bd 1348 aabc e041 063e
00000290: f666 4abd cb2e 293e 5c27 423d 6c89 733d
000002a0: ad66 133c fb9b 363e 0214 f03d d99a 9abd
000002b0: 5d4c 5e3b fb76 f93d 87ea 5bbd e622 a5bd
000002c0: e679 893d f262 20bd 9217 93bc f1fe 453d
000002d0: 1bd7 f6bc e9cb 7f3c ecaf 2e3d 600e a9bd
000002e0: 1093 0a3e 4289 d83d 45e4 8a3c 6216 343d
000002f0: c87a 273e 5d51 abbd 47ca e33d a522 ebbc
00000300: 3626 513e d623 1ebd fa26 313d 9315 1cbc
00000310: 5791 0abd 79fa ab3d b66b 513c ab2a 8a3d
00000320: 20e5 803c 4e00 923b 7eb4 28bd 654f 1b3e
00000330: 905b f03c f8e9 acbc ee09 06be 2791 db3d
00000340: c34a b8bc 4e0f 463d 48bc ac3d 7790 dabd
00000350: 67b4 40bd 3963 7c3d 3dd6 0cbc eb77 223e
00000360: 48f0 923d 2264 153d c125 013e 93fa a7bd
00000370: 54fd 233d 8c43 83bb 5390 113e a04f c6bc
00000380: 17cc 6a3b dec8 363d 6050 4e3c e488 44bd
00000390: ae88 c83d 9290 a7bc 4d82 c6bd b66d f83a
000003a0: cdbb 413b f496 a83d f0cd 853e a938 ec3d
000003b0: b4cc f03d 5cc4 b7bd 8465 e2bd 7c00 a7bd
000003c0: c543 b73d 420b 243d ad68 023c 3ff9 763d
000003d0: c1b5 cf3b 743e 4dbd c0ba 53bd 8cc2 d4bc
000003e0: 19a2 0e3c ac85 f73b b618 2bbd fd82 7b3c
000003f0: 4519 373d a6b2 26be 5f54 4ebd 181d 17ba
-0.027620783 0.068294086 0.012141665 0.034655612 -0.19743729 0.04667433 0.024128268 -0.018358476
0.048151743 -0.101171836 -0.101966724 -0.23645657 0.060723174 0.031802263 -0.08483601 -0.15043078
-0.02963626 0.065816574 0.029809773 -0.09164435 0.028233258 0.0035337533 -0.068443574 0.022880264
0.08475359 -0.1973038 0.07202051 -0.029970456 -0.012680734 -0.015843336 0.041967586 -0.08403832
0.103046134 -0.092365034 0.08233637 -0.059358403 0.0064341137 0.0024376176 0.043323785 -0.048666056
-0.18122967 0.09139827 0.024886986 -0.08699727 0.028924854 -0.09687546 0.025642447 0.0010108508
-0.12710911 -0.08109058 -0.04652695 -0.0011191164 0.039018303 -0.08708764 -0.05678071 0.12412529
0.0050880453 -0.027679594 -0.009237495 -0.048272442 0.017949875 -0.14564659 -0.14512762 0.07246844
0.067968056 -0.08610597 -0.17220663 -0.21702175 -0.006331013 0.0066515105 -0.060971864 -0.065860726
-0.08730191 -0.034222174 0.039649248 0.046922438 -0.030196594 0.078666724 -0.04386281 -0.03497874
0.06664776 0.07237713 0.035377815 -0.107070416 -0.0058850287 -0.0040292297 0.027057545 -0.10269159
0.091705054 0.050008837 -0.0012106125 0.09622078 0.006853857 -0.040647753 -0.045044675 -0.12653598
0.01658978 0.059631903 -0.1316869 0.09710262 0.05629151 -0.072350346 -0.20029664 0.06900281
0.082072295 -0.22264911 -0.00013725783 0.10888518 -0.08262288 0.034055784 0.07175618 -0.020906676
-0.006219434 -0.028176058 -0.07742216 -0.18394245 -0.20507935 0.13702308 0.17268391 0.007172751
0.05933638 0.07928212 -0.03997901 0.027367081 0.08559182 -0.0540508 0.042489633 -0.06266693
-0.006744816 0.14295132 -0.038396608 0.12248091 -0.062314734 0.092667185 0.060692035 0.0477192
0.062891066 0.06291368 -0.004556327 0.048201278 0.05196016 -0.016245564 0.09461988 -0.04953365
0.022435999 0.09524841 -0.043862645 0.087263554 0.052000318 -0.012948672 0.143897 0.06071687
0.01927168 -0.053128224 -0.051189024 0.19868335 -0.040088147 -0.018245919 -0.034330733 0.05932648
0.04453925 -0.044422466 -0.02078632 0.13111067 -0.049414597 0.16521756 0.047400817 0.059457228
0.008996648 0.1783294 0.11722566 -0.07549066 0.0033920028 0.12180897 -0.05369046 -0.08063297
0.067127034 -0.03915686 -0.017955575 0.048338834 -0.030131867 0.015612581 0.04264824 -0.08254695
0.13532662 0.10573055 0.01695455 0.04396666 0.16355431 -0.08365128 0.11122566 -0.028703043
0.20424733 -0.038608395 0.04325006 -0.009526628 -0.033830013 0.08397383 0.012782028 0.067464195
0.015734255 0.0044556027 -0.041187756 0.15167005 0.029340535 -0.021107659 -0.13089725 0.10721045
-0.022496587 0.04835444 0.08434349 -0.10672086 -0.047047045 0.061618064 -0.008596 0.15866058
0.07174736 0.036472447 0.12612058 -0.0820209 0.040036514 -0.004005855 0.14215212 -0.02420789
0.0035827213 0.044625156 0.012592405 -0.04798211 0.097916946 -0.020454679 -0.09692822 0.0018953595
0.00295614 0.08231917 0.2613368 0.115342446 0.11757794 -0.089729995 -0.11054519 -0.08154389
0.08948473 0.0400498 0.007959527 0.060296293 0.0063388054 -0.050108388 -0.05169177 -0.025971673
0.008705639 0.0075537767 -0.041771613 0.015351054 0.044701833 -0.16279086 -0.05037343 -0.0005764528

fc2.bias f4 [84]
00000000: 523f 003e 24b4 1ebc 7c61 873b 20e9 5b3d
00000010: ea0c 28bc d16c b13d b250 d43d 9da9 13bd
00000020: c4c1 283d a161 c13c ede2 913d 87d1 463d
00000030: 4e60 bc3d 890a a93d 66e4 afbd 7911 253d
00000040: 4fa1 7dbd 23f1 aa3d fe36 98bd 9434 6f3d
00000050: f25a 39bd 5da5 a03d 8f59 ac3b 156d 5ebd
00000060: 2c8f 913d 79af febd c603 823c f346 ddbc
00000070: 1819 d4bc 4e90 22bd f9dd ec3c 680d 053e
00000080: 7c55 f63d 572b 4e3d 3573 843d 83db 60bd
00000090: c274 bebd 15e2 fabd 2d29 293d fd26 d43d
000000a0: bdcd 9a3d 76a4 d13d 3612 f13c 7c58 213d
000000b0: 165a 58bd dd1d b0bc 1121 553d 9627 1d3d
000000c0: 9da3 20bc 5fad b43d bc8a 803d 1944 ec3c
000000d0: d492 8fbc f39e bbbc 305b b33d d487 ecbc
000000e0: 1288 263b f4f4 a9bd aac5 ca3c 9d0a 8d3d
000000f0: 3732 9c3d f351 103d 6134 0ebd c857 813d
00000100: 22d4 d8bd 6950 023d bf1b eebc 0046 003d
00000110: dbe0 df3d 5353 5d3d a4a4 8ebc 0994 9bbb
00000120: d070 4abc 56c2 3d3c ee76 c4bc 3e73 a33d
00000130: 3272 693d 1fcb 40bc 23af a13d 8abf 5bbd
00000140: af03 cdbd 7203 123e e55b 10bd e7f4 ddbd
0.12524155 -0.009686504 0.004131494 0.053689122 -0.010256985 0.08663333 0.10366954 -0.036050428
0.041200414 0.023606123 0.07123361 0.048539665 0.09198056 0.082539625 -0.085884854 0.040299866
-0.061921414 0.083467744 -0.07432364 0.05839975 -0.045252748 0.078440405 0.0052596997 -0.054303247
0.07107386 -0.124358125 0.01587094 -0.02701137 -0.025890872 -0.0396884 0.028914439 0.12993395
0.120280236 0.0503343 0.064672865 -0.054896843 -0.092996135 -0.12250153 0.041299034 0.10358999
0.07558773 0.102364466 0.029427629 0.039391026 -0.052820288 -0.021498615 0.052033488 0.03836783
-0.009804633 0.088221304 0.062764615 0.028841065 -0.017526068 -0.022902941 0.08757627 -0.028873362
0.0025410694 -0.08298674 0.024752457 0.0688679 0.07626765 0.035234403 -0.03471792 0.06315571
-0.10587336 0.031814966 -0.029065965 0.031316757 0.1093156 0.054034542 -0.017412491 -0.004747872
-0.012355998 0.011581978 -0.023982491 0.07980965 0.05699367 -0.011767178 0.07894733 -0.053649463
-0.10010468 0.14259127 -0.035243887 -0.10837727

fc3.weight f4 [9, 84]
00000000: f33a 87be b305 013e 3162 3f3d 87bd 09be
00000010: f7f9 08bd fffb fd3d acb8 59be 3f38 3ebd
00000020: bec8 acbb 8d39 2abe b79b 243e e7b6 79bd
00000030: cd64 59be 8b4c 23be e0e6 0dbe f00f f23b
00000040: e22f e0bd 5b7f acbd 1b97 143e fa59 10be
00000050: ecc9 a4bd bb11 f9bd 25a0 bc3d 9ae5 0bbe
00000060: afcb f1bd b79f 80bd 0f44 d63d c9eb dd3d
00000070: 51f3 1cbe 0ed7 843d 64a1 303e 33c7 5abe
00000080: bc9b 4fbe 4e7a c43d fe39 21bd 6e7a 103e
00000090: 486d 5f3c 240e ee3d 3fd3 ee3d b3c2 17be
000000a0: 8310 aa3d 18eb 45bd 5730 303e ae4e 8abd
000000b0: ceb3 27be 058e 833d 9ea5 de3d 969b 58bd
000000c0: 6609 753d 81c7 823d f5ff e3bd 663a ed3d
000000d0: 1621 fc3b 2a99 49be 8d5e 1b3d 9db7 6dbd
000000e0: a198 ec3c b9ba 08be 9d35 f83b 1165 ccbd
000000f0: b331 b2bd 70ba 973d afe1 a2bb 7672 8e3d
00000100: 3825 e7bd 545c 0e3e 16fa 4dbe 7fa2 c8bd
00000110: 665f 37be 2690 3abd 0b3a 95bd b563 1dbc
00000120: 4bcd 0dbe b654 e83c e52a d03d 1ada 61bd
00000130: 1a17 083e d2dd 193e 3df9 08be 5c6b d83d
00000140: 14c8 4b3d da8b 5fbe 13bd 41be ef9c 7a3d
00000150: 3536 4ebe 0247 3e3c f56d a2bd 674b 373d
00000160: ff04 b9bd 763c 143e 7e44 45be d0f1 d23a
00000170: b7da 3bbe 09e5 c53d 83bd f83d 2fdc e2bb
00000180: a2a0 d23d a552 e7bd e0e8 afbd f9ce b3bd
00000190: 1332 5d3d 95f4 9a3c 2723 8c3c 9d88 87bd
000001a0: aa86 0c3c 0cee c7bc 2a42 073e f394 3fbe
000001b0: 7419 003d 990f e43d 467f 23be e880 39be
000001c0: e0a8 56be 28dc c63d ce10 78be 0bc1 ecbd
000001d0: bfbd bc3d 26f4 b2bd 2cea 8ebe af38 ccbd
000001e0: 18b9 73bc 18c9 65be c85d cf3d ce32 e13d
000001f0: 3012 b93d ee27 64be 6e70 c7bd 25fe 54bd
00000200: efe0 033e 3645 b93d 9ccd 10be 5634 68be
00000210: 39bf dd3d a109 283e e224 acbd 7eeb a13d
00000220: 638d 3cbd e3d2 69be e57b c0bc d9af 05be
00000230: 5c59 9d3d a8e5 a9bd be40 f2bd 2e8f 9c3d
00000240: 5edb 043e e063 8d3d 8986 2bbe 832c 95be
00000250: f666 36be 0f32 94bd 0d6e 15be 7097 a73d
00000260: 5d0a a13d e38f 16be a94a aabd 21c9 7fbd
00000270: 69ed 60bd 9649 babd 39d1 18be 1d9a dfbd
00000280: 99f0 2f3d 44a1 73bd 6bca 29be b8ce 13be
00000290: 0289 9a3d f696 b43d 4bd2 66bd b70a 553d
000002a0: 911d 043e 8170 80bd 1dea 083e d3b9 6b3d
000002b0: 1408 183c 2964 213e cd79 063e 44f7 bf3d
000002c0: 1c9a 4bbe b645 4dbe b02c a53d 3cdf f2bd
000002d0: 6767 f7bd e7fb 613d 6508 3b3d c023 23be
000002e0: a3a8 39bd e916 053e 4e87 b6bd 728f b9bd
000002f0: 9d09 05be ff0b aebd bf28 903d c848 0dbe
00000300: 4386 61be 9736 bbbd 896f 313b c408 60be
00000310: 0910 9b3d a9f5 1c3d 6257 2bbd b7f1 6abe
00000320: 6052 08be a4c3 45bd 75d6 c63d 2395 57be
00000330: 63c9 10be be15 e1bc d287 133e 8166 893d
00000340: b307 a8bd c617 d9bd 8d30 39be d459 62bd
00000350: 4816 bebc d3df 10be 5c48 a63d 37e8 7fbe
00000360: 389e 9e3d 6a96 ffbd fa82 dabc 9361 d93d
00000370: 0324 c03d 94aa 74be 7659 0c3d 1e46 b93d
00000380: 2ecd 70bd 1a8d 2c3d 9f3f a3bd 2d89 423d
00000390: 0033 09be 499f ba3d 8a2b 20be 2b33 223e
000003a0: 6726 31bd 9b30 983d 9713 003d 54ee 4abe
000003b0: 77d1 a73d 2326 f53d 1198 25be a22d 6a3e
000003c0: 2cbf b33d ce85 4cbe 5a6c 4ebd d9ea 2cbe
000003d0: ee76 e2bc cc08 3fbd 4bee c1bc 9814 24be
000003e0: 13e4 643d 846e a9bc 298f 063e f75b d33c
000003f0: 48b8 e63d 6b0b d6bd 4754 463e 94ca 883d
-0.26412162 0.1259983 0.046724502 -0.13451205 -0.03344151 0.1240158 -0.21261853 -0.04644036
-0.005272954 -0.16623516 0.16075025 -0.060965445 -0.21229859 -0.15947168 -0.13857603 0.007387154
-0.10946633 -0.08422729 0.14510767 -0.14096823 -0.08046326 -0.12161585 0.09210233 -0.13661805
-0.11806428 -0.06280463 0.104622 0.10835988 -0.15327193 0.06486331 0.17249066 -0.21365051
-0.20274252 0.0959364 -0.039361946 0.14109203 0.0136368945 0.11623791 0.11661386 -0.14820366
0.083039306 -0.048319906 0.1720594 -0.06753288 -0.16377184 0.064235725 0.10871433 -0.052882753
0.059823416 0.063857086 -0.11132804 0.11583404 0.007694374 -0.19687334 0.037931968 -0.058036435
0.028881373 -0.13352479 0.0075747506 -0.099802144 -0.087008856 0.07408607 -0.0049707512 0.069554254
-0.11286396 0.13902408 -0.20114931 -0.09796619 -0.17907485 -0.045547627 -0.072864614 -0.009606292
-0.13847844 0.028360706 0.101644315 -0.05513964 0.13290063 0.15026024 -0.13376327 0.10567352
0.049751356 -0.21830693 -0.18919782 0.06118482 -0.20137866 0.011613609 -0.07931129 0.044749644
-0.09034156 0.14476189 -0.19264409 0.0016093794 -0.18345152 0.096628256 0.121455215 -0.0069232206
0.102845445 -0.1129506 -0.08589339 -0.08779711 0.054002833 0.018915454 0.017106606 -0.06617854
0.008577028 -0.024405502 0.13208833 -0.18709163 0.031274274 0.111357875 -0.1596652 -0.1811558
-0.20962858 0.0970996 -0.2422516 -0.115602575 0.09215879 -0.08737974 -0.27913034 -0.09971749
-0.014875673 -0.22439992 0.10125309 0.10996018 0.09036672 -0.22280857 -0.09738241 -0.052000184
0.12878774 0.09046404 -0.14140934 -0.22676215 0.108274885 0.16409923 -0.08405472 0.07906245
-0.046033274 -0.22834353 -0.023496578 -0.13055362 0.076830596 -0.082957566 -0.11828755 0.07644497
0.12974307 0.06903815 -0.1675054 -0.29135522 -0.17812714 -0.072361104 -0.14592762 0.08183181
0.07863305 -0.14703326 -0.083150215 -0.06244767 -0.054913912 -0.09096067 -0.14923562 -0.10918067
0.04295406 -0.059479967 -0.16581123 -0.14434326 0.075456634 0.08817856 -0.056352895 0.05201217
0.12901904 -0.062714584 0.13370557 0.057550263 0.00927927 0.15760864 0.13132401 0.09373334
-0.19883007 -0.20046124 0.08065164 -0.11858985 -0.12080269 0.055171873 0.045662303 -0.15931606
-0.04532684 0.12997021 -0.08912526 -0.09060563 -0.12991948 -0.08498382 0.07039022 -0.13797295
-0.22023873 -0.091412716 0.0027074537 -0.21878344 0.07571418 0.038320217 -0.04183138 -0.2294377
-0.13312674 -0.04828228 0.09708873 -0.21052985 -0.14139323 -0.027476188 0.1440728 0.06709004
-0.082045935 -0.106002375 -0.18084927 -0.055261448 -0.023203984 -0.14147882 0.0811927 -0.24990927
0.077450216 -0.12479861 -0.026673783 0.10614314 0.09381869 -0.23893195 0.034265004 0.09046577
-0.058789425 0.042126752 -0.07971119 0.047494102 -0.13398361 0.091124125 -0.15641609 0.15839832
-0.043249514 0.07431146 0.031268682 -0.19817477 0.08194249 0.119701646 -0.1617129 0.2286897
0.087766975 -0.19972917 -0.0503963 -0.16886462 -0.0276446 -0.04663925 -0.023673197 -0.16023481
0.05588157 -0.02068258 0.13140549 0.025800688 0.112656176 -0.104513966 0.19368087 0.06679264

fc3.bias f4 [9]
00000000: 3045 e03c b209 67bd dcba b63d 39f0 133c
00000010: 4ac4 05bd e646 073e 7503 a43d 8143 803d
00000020: afe9 e0bd
0.027376741 -0.05640573 0.08922359 0.0090294415 -0.0326579 0.1321064 0.08008472 0.06262875
-0.109820716
