rm_auto_aim/armor_detector/model/mlp.onnx (onnx, 314058 bytes, 6 tensors)

layers.1.weight f4 [120, 560]
0	0x3cc694c5	0.02424086
1	0x3d5a6c7a	0.053326108
2	0x3d9628ce	0.073320016
3	0x3d09a1e5	0.03360166
4	0x3ce72dfe	0.028220173
5	0x3d702eee	0.058638506
6	0x3c84627b	0.01616024
7	0x3d1ceb19	0.038310144
8	0x3ce4d53f	0.027933715
9	0xbd6daf02	-0.05802823
10	0xbda550a4	-0.080720216
11	0xbde87843	-0.11351063
12	0xbd8fe9a4	-0.07026985
13	0xbd763d6b	-0.060117166
14	0xbdf6717a	-0.12033363
15	0xbd042c31	-0.032268707
16	0xbd7d4869	-0.061836634
17	0xbcb2e59f	-0.021838007
18	0x3d268312	0.040652342
19	0x3d9a2453	0.075264595
20	0x3ca11607	0.019663824
21	0x3d06316a	0.03276197
22	0x3d8185bb	0.06324335
23	0x3dc067b4	0.0939478
24	0x3c654d81	0.013995529
25	0x3d1bbdb0	0.038022697
26	0x3d9b65f5	0.07587806
27	0x3dd5066a	0.10401614
28	0x3d9fe0cc	0.078065485
29	0x3d6b8632	0.057501025
30	0xbcab1e98	-0.020888612
31	0xbcde02ed	-0.027101004
32	0xbd10294a	-0.035195626
33	0xbcb6f619	-0.022334145
34	0xbd159feb	-0.036529463
35	0xbcc1d7b9	-0.023662435
36	0xbc9e1459	-0.019296812
37	0x3d88c8bf	0.06678914
38	0x3d3dab90	0.046306193
39	0x3d94e62c	0.07270464
40	0xbadd9106	-0.0016904182
41	0x3c8c8640	0.01715386
42	0xbba8824e	-0.0051424867
43	0xbbacd26b	-0.005274107
44	0x3d4f6233	0.05063076
45	0x3d8b3f18	0.067991436
46	0x3d86ca07	0.065815024
47	0x3df0b04a	0.117523745
48	0x3d085c42	0.03329111
49	0x3d82a1c5	0.06378511
50	0x3c7988fb	0.015230413
51	0xbb86630e	-0.0041011637
52	0xbcb4c45d	-0.02206629
53	0xbd025146	-0.03181579
54	0xbd9d8a9e	-0.07692455
55	0xbd88a874	-0.06672755
56	0xbc022498	-0.007943295
57	0x3daa82b7	0.08325713
58	0x3da1cb49	0.07900102
59	0x3db9821d	0.0905802
60	0x3d59c092	0.053162165
61	0x3d46ec9c	0.048565492
62	0x3c4323c4	0.011910383
63	0xbd0ac509	-0.033879314
64	0x3d647471	0.05577511
65	0x3d95fae0	0.07323241
66	0x3dc466a0	0.09589887
67	0x3dac6e51	0.08419479
68	0x3db17ba8	0.08666164
69	0x3d774141	0.060364965
70	0x3c585e5d	0.013206092
71	0x3d0a1d14	0.033719137
72	0xbd176d4f	-0.03696948
73	0x3c2fe067	0.010734654
74	0xbcb16884	-0.021656282
75	0xba11b092	-0.0005557622
76	0xbc6329cd	-0.013864947
77	0x3db678e8	0.0890978
78	0x3cd69c0e	0.02619746
79	0x3d2d7535	0.042348105
80	0x3d7a618d	0.061128188
81	0x3cd22b14	0.025655307
82	0x3c00b115	0.00785472
83	0x3c5c116e	0.01343189
84	0x3cfb6234	0.030686475
85	0x3e02ffb6	0.12792858
86	0x3e1cbb85	0.15305908
87	0x3dfbac2a	0.12288697
88	0x3dac6dfc	0.08419415
89	0xbc09de8b	-0.008414875
90	0x3d7e1e6d	0.062040735
91	0xbca7a7a6	-0.020465683
92	0xbab1afaf	-0.0013556386
93	0xbd1a549e	-0.037678353
94	0x3cc3dcb5	0.023908952
95	0xbcc8842e	-0.02447709
96	0x3d0fc388	0.035098583
97	0xbc9393fd	-0.018014902
98	0x3d77ac05	0.060466785
99	0x3c96d578	0.018412337
100	0x3d4ed10b	0.050492328
101	0x3c061583	0.00818384
102	0x3c33145f	0.01093015
103	0xbcd4522c	-0.025918089
104	0x3d844169	0.064577885
105	0x3dd7d022	0.10537745
106	0x3e19c835	0.15017779
107	0x3e195571	0.14974
108	0x3df9ba2e	0.12193714
109	0x3cc185c6	0.023623358
110	0x3d1eb683	0.038748275
111	0x3caa54d8	0.02079241
112	0x3a8bfdf2	0.001068054
113	0x3c865372	0.016397212
114	0x3a9e6de3	0.0012087192
115	0x3d30255f	0.04300439
116	0xbd214af9	-0.03937814
117	0x3b7c05f0	0.0038455687
118	0x3cf1ac3d	0.029501075
119	0xbc99c3a8	-0.018770054
120	0x3cb66f8f	0.022269992
121	0xbbd6ccd4	-0.006555179
122	0x3cf032e8	0.029321149
123	0x3d16d27c	0.036821827
124	0x3d8ddc4b	0.06926783
125	0x3dbc1826	0.091842934
126	0x3e2c9f77	0.16857706
127	0x3de364a2	0.111031786
128	0x3d2951c1	0.041337732
129	0x3d5b584a	0.053550996
130	0xbb8e75a7	-0.0043475213
131	0x3bc9d52b	0.006159445
132	0xbd89de0d	-0.06731806
133	0xbc74f1e7	-0.014950252
134	0x3d193922	0.037408
135	0x3c6a680d	0.014307034
136	0xbd2277e3	-0.039665114
137	0xbd34ea0f	-0.04416853
138	0xbc1af2da	-0.009457314
139	0xbd669a7f	-0.056299683
140	0x3c83d2ee	0.01609179
141	0xbcd09fa0	-0.02546674
142	0x3d98893a	0.07448049
143	0x3c96bd06	0.01840068
144	0x3d5f9ea9	0.05459467
145	0x3dc67497	0.096902065
146	0x3e2027d1	0.15640189
147	0x3deecee4	0.11660555
148	0x3d6332cb	0.05546836
149	0x3d7237e0	0.059135318
150	0xbc9c5481	-0.019083263
151	0xbc92f446	-0.017938744
152	0xbd351407	-0.044208553
153	0xbd4df1bb	-0.05027936
154	0xbc84d5ff	-0.016215323
155	0xbd35213e	-0.044221155
156	0xbb813561	-0.003943131
157	0xbd4bc2be	-0.049746267
158	0xbd284f1d	-0.041091073
159	0xbd5dd075	-0.05415388
160	0x3dcc2546	0.09968047
161	0x3d4d3ab9	0.05010483
162	0x3dee7148	0.116427004
163	0x3dcb9dfa	0.09942241
164	0x3defbeb2	0.11706294
165	0x3dd56bf6	0.104209825
166	0x3df32637	0.11872523
167	0x3dea62c1	0.11444617
168	0x3dccb946	0.099962756
169	0x3ccead08	0.025228992
170	0x3d1af646	0.03783252
171	0x3c2a3310	0.010388151
172	0xbda48103	-0.080324195
173	0xbc04f325	-0.008114611
174	0xbc5f0c1e	-0.013613729
175	0xbd734ba8	-0.059398323
176	0xbdbd14f9	-0.09232516
177	0xbd0b375a	-0.033988334
178	0xbcf05c01	-0.029340746
179	0xbd5b4435	-0.053531844
180	0x3e08ffc8	0.13378823
181	0x3d4a3496	0.049366556
182	0x3de47b29	0.111563034
183	0x3b6c55d4	0.00360619
184	0x3d199a6b	0.03750078
185	0x3d009abb	0.031397562
186	0x3d5db68b	0.054129165
187	0x3dabef6b	0.08395275
188	0x3e083af4	0.13303739
189	0x3caea7f1	0.021320315
190	0x3bd3275f	0.0064439024
191	0xbd44e604	-0.048070922
192	0xbd3a810f	-0.045533236
193	0x3cb97408	0.022638336
194	0x3d85365c	0.06504509
195	0xbc776f08	-0.0151021555
196	0x3d009209	0.03138927
197	0xbd45f90d	-0.048333216
198	0x3d6b120f	0.05739027
199	0xbda396dc	-0.079877585
200	0x3e11d645	0.14241894
201	0x3dba87ba	0.09107919
202	0x3d0a7d99	0.033811186
203	0x3d0b5851	0.034019772
204	0x3d135271	0.035967294
205	0x3d972ba0	0.07381368
206	0x3d3b94cc	0.0457962
207	0x3d32efa3	0.043685567
208	0x3de9f6cf	0.11424028
209	0x3d5c2bd4	0.053752735
210	0x3ce03af8	0.027371868
211	0xbd2a30d9	-0.04155049
212	0xbcc1953e	-0.023630735
213	0x3cfa1bd3	0.030530846
214	0x3d088db8	0.03333828
215	0x3aa0a0f7	0.0012255003
216	0x3c530e83	0.012881878
217	0x3d54311f	0.051804658
218	0x3dd49fbc	0.103820294
219	0xbca6cca3	-0.02036125
220	0x3dfc97d4	0.123336464
221	0x3de70a24	0.11281231
222	0x3bb8f5d8	0.0056445412
223	0x3afce017	0.0019292858
224	0x3cbe3bc3	0.023221856
225	0x3d7c2383	0.061557304
226	0x3dfdf7a6	0.12400751
227	0x3d45c95c	0.048287734
228	0x3dbbe293	0.09174075
229	0x3cbfbe65	0.023406217
230	0x3d135e92	0.03597886
231	0x3c89aed5	0.016807
232	0xbcdce64e	-0.026965287
233	0x3cab3063	0.020897096
234	0x3d07df5c	0.033171996
235	0xbc99a5d0	-0.018755823
236	0x3cb36978	0.021900877
237	0x3da69acf	0.08134996
238	0x3e172486	0.14760026
239	0x3dd5cbc4	0.10439256
240	0x3d5e4ea1	0.054274205
241	0x3d33ca93	0.04389436
242	0x3d415030	0.047195613
243	0xbceb36e0	-0.02871269
244	0xbc45dd24	-0.01207665
245	0x3dfad105	0.122468986
246	0x3daeb804	0.08531192
247	0x3dac69c5	0.084186114
248	0x3dfffaad	0.124989845
249	0x3d1f4fe0	0.038894534
250	0x3ccfadbc	0.025351398
251	0x3d940bd7	0.07228821
252	0x3d4360cd	0.04769974
253	0x3d784364	0.060611144
254	0x3d7905fa	0.060796715
255	0x3d0598ae	0.03261631

layers.1.bias f4 [120]
0	0xbe32f184	-0.17474943
1	0xbb0c69c1	-0.002142534
2	0x3e962e90	0.293324
3	0xbd757986	-0.059930347
4	0x3e9ddecf	0.30834052
5	0xbe487389	-0.19575323
6	0xbe43fced	-0.19139452
7	0x3d940de0	0.07229209
8	0x3ea06635	0.31327978
9	0xbe4e8c87	-0.20170794
10	0x3e28dec3	0.16491227
11	0x3e597bf4	0.2123869
12	0x3e2218c9	0.15829767
13	0xbe019215	-0.12653382
14	0xbcddcfa2	-0.027076546
15	0x3e5310f8	0.20611942
16	0xbe9a9351	-0.30190518
17	0x3e130453	0.14357118
18	0x3e9cd9b4	0.30634844
19	0x3e487076	0.1957415
20	0x3f0a6208	0.54055834
21	0xbe1ab13b	-0.1510667
22	0x3e7c6c3f	0.24650668
23	0xbe879664	-0.26481926
24	0xbd5ed3ca	-0.054401197
25	0x3eba5092	0.36389595
26	0xbc520063	-0.012817475
27	0xbdd9bcca	-0.10631712
28	0xbda7203b	-0.08160444
29	0xbdbc2af3	-0.091878794
30	0xbe96f4f6	-0.29483765
31	0x3e57c18b	0.21069925
32	0x3d55ca0f	0.05219465
33	0xbd130b06	-0.035899185
34	0x3c5f1172	0.013614999
35	0xbd1596b7	-0.036520686
36	0x3e237c31	0.15965344
37	0x3e11e6bc	0.14248174
38	0xbc5ad872	-0.013357269
39	0x3ea9506e	0.33069175
40	0xbd4f75a3	-0.050649296
41	0x3eb96cce	0.36215824
42	0x3ca8e53d	0.020617122
43	0xbc67111a	-0.014103198
44	0xbe0cde52	-0.13756683
45	0x3e74eb63	0.23917918
46	0x3e6c25b3	0.23061256
47	0x3df862c1	0.12128211
48	0xbd9c3fe9	-0.076293774
49	0x3cf8c642	0.030367974
50	0xbe18763e	-0.14888856
51	0x3e95d64d	0.2926506
52	0x3e0a1317	0.13483845
53	0xbbd834f9	-0.0065981117
54	0x3dfe07a6	0.124038026
55	0xbc3c9639	-0.011510425
56	0xbe1388c2	-0.14407638
57	0x3db33d87	0.0875197
58	0xbe53b5b4	-0.20674783
59	0x3e2d4c12	0.1692355
60	0xbb94bf83	-0.0045394315
61	0x3e3df260	0.1854949
62	0xbe1dc684	-0.15407759
63	0xbeb03164	-0.34412682
64	0x3dde1ace	0.10844956
65	0x3dff86b0	0.124768615
66	0x3e40c101	0.18823625
67	0xbd45cb53	-0.04828961
68	0x3e429374	0.19001561
69	0x3eb7475a	0.35796624
70	0xbd9fe4df	-0.078073256
71	0xbcda431d	-0.02664333
72	0xbe23843d	-0.15968414
73	0x3dfc0282	0.12305166
74	0xbe66b3f9	-0.22529592
75	0x3e52934b	0.20564
76	0xbc6c08a7	-0.01440636
77	0xbe35d08e	-0.17755339
78	0x3ba2e424	0.004971044
79	0x3b15a081	0.0022831263
80	0x3d13da05	0.03609659
81	0x3e93438b	0.2876247
82	0xbe275fdd	-0.16345163
83	0x3e932909	0.28742245
84	0xbd84e7b4	-0.06489506
85	0xbd45b1c3	-0.04826523
86	0x3e6774e6	0.22603187
87	0x3e43b15a	0.19110623
88	0xbd30cc1d	-0.043163408
89	0xbcea4d5d	-0.028601343
90	0x3e1ac88b	0.15115564
91	0x3e3127f1	0.17300393
92	0x3e0af9b7	0.13571821
93	0xbdf36ad2	-0.11885609
94	0x3e46867a	0.19387236
95	0x3dc4f568	0.0961712
96	0xbe443c80	-0.19163704
97	0xbbb2d546	-0.005457553
98	0xbe8a4dd1	-0.27012494
99	0xbe504129	-0.20337357
100	0xbbbf6573	-0.005840951
101	0xbd9c4971	-0.07631195
102	0x3db77922	0.08958651
103	0x3ccd2a1e	0.025044497
104	0xbdd7c44d	-0.10535488
105	0xbdf0996a	-0.117480114
106	0x3d9da943	0.076983
107	0x3db6e965	0.08931235
108	0xbe6bb727	-0.23019086
109	0x3eb96a7c	0.36214054
110	0x3e66eb0d	0.22550602
111	0x3e03853b	0.12843792
112	0xbcf50646	-0.029910218
113	0x3bc395d8	0.0059687905
114	0xbcdd75e1	-0.027033748
115	0xbe255247	-0.16144668
116	0x3dc1ac96	0.09456746
117	0x3e34fedd	0.17675348
118	0x3ecb4d1b	0.39707264
119	0x3dfbac76	0.12288754

layers.3.weight f4 [84, 120]
0	0x3d71ea58	0.05906138
1	0x3e4b8f3e	0.19878861
2	0xbd68b373	-0.05681176
3	0x3ec7f679	0.3905523
4	0x3d4979f9	0.049188588
5	0x3df3c185	0.11902145
6	0x3c997da2	0.018736664
7	0x3a488b3e	0.0007650143
8	0x3ecb96e6	0.39763564
9	0x3db8ad7e	0.09017466
10	0x3ee5421d	0.44777003
11	0xbd7c35d8	-0.061574787
12	0x3c9de6c3	0.019275075
13	0x3e2bf0fe	0.1679115
14	0x3e1073c6	0.14106664
15	0x3e9028d9	0.28156164
16	0x3d9de842	0.07710315
17	0x3d4088e6	0.047005557
18	0xbe0dedbc	-0.1386022
19	0x3daa976d	0.083296634
20	0x3ed7cb5d	0.4214734
21	0x3c4a223a	0.012337262
22	0x3ca3ee47	0.02001108
23	0xbd8b9645	-0.06815771
24	0xbd884697	-0.06654089
25	0x3e9e9453	0.30972537
26	0x3ebce81a	0.3689583
27	0x3e35d98a	0.17758766
28	0x3d032bd0	0.032024205
29	0xbd2eba66	-0.042658232
30	0x3dd019c1	0.10161162
31	0x3e8a7a07	0.27046224
32	0x3e813e46	0.25242823
33	0x3e36c027	0.17846738
34	0xb9de74bd	-0.00042430116
35	0x3e0a3511	0.13496806
36	0x3d1e3731	0.038626853
37	0xbbe36984	-0.0069400687
38	0x3d959538	0.07303852
39	0x3ed10aea	0.4082864
40	0x3d430c0c	0.04761891
41	0x3ec30bbe	0.38094896
42	0x3d8e1db8	0.06939262
43	0x3d4ab169	0.049485598
44	0x3d6591ef	0.056047376
45	0x3eb22884	0.34796536
46	0xbe8bea88	-0.2732737
47	0xbbea1a26	-0.0071442304
48	0x3e2a3b60	0.16624212
49	0xbc87139d	-0.016488845
50	0x3d0f6f07	0.035017993
51	0x3d100fa5	0.03517117
52	0xbdbcd6a0	-0.09220624
53	0x3d8508ec	0.06495842
54	0x3da4c5c1	0.08045531
55	0x3dceaba9	0.10091335
56	0x3ddaf52d	0.10691295
57	0x3daf6307	0.0856381
58	0x3e0d0cd1	0.1377442
59	0x3e5b6d8b	0.21428506
60	0x3e833446	0.2562582
61	0x3d4bd2ad	0.049761463
62	0x3e6b0e78	0.22954738
63	0x3dae909c	0.08523676
64	0xbe0a2cc4	-0.13493639
65	0x3e364604	0.17800146
66	0x3eb4735b	0.3524426
67	0x3e97853b	0.29593834
68	0xbd023398	-0.031787485
69	0x3e8542f0	0.26027632
70	0xbd6e377d	-0.058158386
71	0x3dffecd5	0.12496344
72	0x3ddf0000	0.10888672
73	0x3e78fbbe	0.24314782
74	0x3ce59ea9	0.028029757
75	0x3e94fb73	0.2909809
76	0xbcf15de2	-0.029463712
77	0x3e02cfea	0.12774625
78	0xbbfd4257	-0.0077288556
79	0xbd3dd18b	-0.046342414
80	0x3da3cda2	0.07998206
81	0x3dda5239	0.10660214
82	0xbda76b7d	-0.08174799
83	0x3ce85d03	0.028364664
84	0x3e81a2fb	0.25319657
85	0x3c05d841	0.008169235
86	0x3ecc8500	0.3994522
87	0x3e70fde8	0.23534358
88	0x3d7f8cc0	0.06239009
89	0xbcfa2367	-0.03053446
90	0xbd3cc6cd	-0.04608803
91	0x3c58722b	0.0132108135
92	0x3eb31875	0.34979597
93	0x3e214209	0.15747847
94	0x3e4865bf	0.19570063
95	0xbc86abfa	-0.016439427
96	0x3e6d3195	0.23163445
97	0x3e9d8fcd	0.30773774
98	0x3da42b68	0.080160916
99	0xbc9522b7	-0.01820503
100	0xbb686d2b	-0.003546546
101	0x3aee14be	0.0018164141
102	0x3e9a6d88	0.3016169
103	0x3e304141	0.17212392
104	0xbd2d4b9f	-0.042308446
105	0x3db45ae4	0.088063985
106	0xbd3ee1f3	-0.0466022
107	0x3da50041	0.08056689
108	0xbab2ce4a	-0.0013641801
109	0x3eb1c9b1	0.3472419
110	0x3ece332c	0.40273416
111	0xbd0a3ca7	-0.03374925
112	0x3dfdd22e	0.12393604
113	0xbd870f3b	-0.06594702
114	0x3e8b1700	0.27165985
115	0xbcd96ab4	-0.026540138
116	0x3ea65122	0.32483774
117	0x3e99f3ac	0.3006872
118	0x3d34ae6c	0.044111654
119	0x3e38809e	0.18017814
120	0x3dd8f909	0.10594375
121	0xbc549e09	-0.012977132
122	0x3dfda7cf	0.123855226
123	0xbe37e20b	-0.17957322
124	0x3dcf0737	0.10108798
125	0x3d3ab093	0.04557855
126	0x3cf990f6	0.03046463
127	0xbcf756ba	-0.030192722
128	0x3e32ecbe	0.17473122
129	0xbd357bbb	-0.04430745
130	0xbddb3994	-0.107043415
131	0x3dbfde44	0.09368566
132	0x3d897ae3	0.06712892
133	0xbc258f90	-0.010105029
134	0x3c9f7062	0.019462768
135	0x3dcf57d4	0.10124174
136	0xbc4380fb	-0.011932607
137	0x3d163bf0	0.036678255
138	0xbddeb4b5	-0.10874311
139	0x3d77f75f	0.060538646
140	0x3cd92d40	0.026510835
141	0xbdf6f475	-0.12058345
142	0x3d9aa696	0.07551305
143	0xbd64a0a1	-0.05581725
144	0x3c0ab772	0.008466588
145	0x3e9bf3c4	0.30459416
146	0x3d07d8ab	0.033165615
147	0x3d82fc17	0.063957386
148	0x3aa7fb62	0.0012816007
149	0xbd06622d	-0.03280847
150	0x3c08d21f	0.008350878
151	0xbe047e78	-0.12938869
152	0xbe46f0d7	-0.1942781
153	0xbdaeae65	-0.08529357
154	0xbd0906a7	-0.03345361
155	0x3da9c5c9	0.08289678
156	0x3deb920c	0.115024656
157	0x3d119c06	0.035549186
158	0xbdcd481b	-0.10023519
159	0xbcf79790	-0.030223638
160	0xbd27473e	-0.040839426
161	0x3dc999b9	0.098437734
162	0xbcc0b933	-0.02352581
163	0xbddfa8fb	-0.10920902
164	0x3dc2f461	0.09519268
165	0xbe11e12e	-0.14246055
166	0x3edb05a3	0.42777738
167	0xbc8ba11d	-0.017044598
168	0x3d9cd4d5	0.07657782
169	0x3e1920c9	0.14953913
170	0x3df8d15a	0.12149306
171	0x3dbc7f80	0.09204006
172	0xbcf9e85e	-0.03050631
173	0x3c85022e	0.01623639
174	0xbd4800ac	-0.048828766
175	0xbd108bfe	-0.035289757
176	0xbdbef148	-0.093233645
177	0x3da7047f	0.081551544
178	0x3c946083	0.018112427
179	0xbdf7875a	-0.12086363
180	0x3dcc8654	0.099865586
181	0x3d7fec22	0.062481053
182	0x3e059aee	0.13047382
183	0x3ddd8b5e	0.10817598
184	0x3da48ad8	0.08034295
185	0x3d84f548	0.06492096
186	0x3cb489fd	0.022038454
187	0xbd8ff254	-0.07028642
188	0x3d1efdb6	0.038816176
189	0x3e7d74aa	0.24751535
190	0xbbddc1db	-0.006767494
191	0x3d037670	0.032095373
192	0x3bb2a576	0.0054518534
193	0xbc9d0ed9	-0.019172119
194	0xbb919554	-0.00444285
195	0x3d93faab	0.072255455
196	0x3d86f590	0.06589806
197	0x3d6cea9c	0.05784093
198	0xbd800b52	-0.06252159
199	0x3dbaff6a	0.091307476
200	0x3d907595	0.07053677
201	0x3cdce6a2	0.026965443
202	0xbd74a3a6	-0.05972638
203	0x3b5b803d	0.0033493184
204	0x3e0da6f0	0.13833213
205	0x3d76aeee	0.06022542
206	0xbd36e495	-0.044651587
207	0x3d2554e9	0.04036418
208	0xbd3c9038	-0.046035975
209	0x3d8e40fb	0.06945988
210	0xbe332f9d	-0.17498632
211	0x3c5c7ad3	0.013457018
212	0xbc1efd0e	-0.009703888
213	0x3c589b7a	0.013220662
214	0x3de35e60	0.11101985
215	0x3dc02080	0.09381199
216	0x3de76875	0.112992205
217	0xbdf29588	-0.11844927
218	0xbdf3c5d3	-0.11902966
219	0xbe75fc3e	-0.24022004
220	0xbe47caa6	-0.19510898
221	0xbe016f86	-0.12640199
222	0x3d5bb3be	0.053638212
223	0xbd921598	-0.07133025
224	0x3c96e2dc	0.018418722
225	0x3d284209	0.0410786
226	0x3d95966b	0.073040806
227	0xbbdee7a8	-0.006802518
228	0xbde1fd36	-0.11034624
229	0x3e83ec73	0.25766334
230	0x3d090dbd	0.033460367
231	0x3d62c9d1	0.05536825
232	0xbd78d2e4	-0.060747996
233	0x3c688677	0.014192215
234	0xbe38a5ec	-0.18032044
235	0x3db9cbda	0.09072085
236	0x3da9ee57	0.08297413
237	0x3deaf728	0.114729226
238	0x3e578b18	0.21049154
239	0x3d2997cf	0.04140454
240	0xbe04fc16	-0.12986788
241	0xbd1c6ce0	-0.03818977
242	0xbe1ff7ec	-0.15621918
243	0xbc847734	-0.016170122
244	0xbccf4cd3	-0.025305187
245	0x3e3205dd	0.17385049
246	0xbdef7244	-0.11691716
247	0xbda15b62	-0.07878758
248	0x3dcf3672	0.101178065
249	0x3cf62552	0.030047093
250	0x3da4051f	0.08008789
251	0xbd1360b9	-0.035980914
252	0x3e1783ae	0.14796326
253	0x3cfad83e	0.03062069
254	0x3d0df7d1	0.034660164
255	0x3e1fd9c1	0.1561041

layers.3.bias f4 [84]
0	0xbdb5011b	-0.088381015
1	0x3d9a4f4b	0.07534655
2	0xbe340c24	-0.17582756
3	0xbe55ba45	-0.20871837
4	0xbdc9cbb8	-0.098533094
5	0xbe1eae7e	-0.15496251
6	0xbd8508eb	-0.064958416
7	0x3e0433ca	0.12910381
8	0xbbfca16b	-0.007709672
9	0xbc6b42c2	-0.014359178
10	0x3e3b75c9	0.1830665
11	0x3d969338	0.073522985
12	0xbc94347a	-0.018091429
13	0x3d6f4f3a	0.058425166
14	0x3e5003f7	0.20314012
15	0x3e1c5a0c	0.15268725
16	0xbdd2c090	-0.10290635
17	0xbd13a3d2	-0.036044903
18	0x3de3351f	0.110941164
19	0x3e0e81cb	0.139167
20	0x3cabfd77	0.020994885
21	0xbcf01ede	-0.029311594
22	0x3d82618c	0.06366262
23	0x3e76100f	0.24029563
24	0x3d1fa1f5	0.038972814
25	0x3e0155e2	0.12630418
26	0x3dcd7699	0.10032386
27	0xbec26d90	-0.37974215
28	0xbdf3cb75	-0.11904041
29	0x3d3eeeb1	0.046614353
30	0xbe17a5c1	-0.14809324
31	0xbdecb9c9	-0.11558873
32	0x3d2f078a	0.0427318
33	0x3d81178a	0.06303318
34	0x3db16b33	0.08663025
35	0x3c126544	0.008935276
36	0xbdaacfbd	-0.08340404
37	0xbe346097	-0.17614971
38	0x3c919bd5	0.017774502
39	0xbdf8f827	-0.12156706
40	0x3be81872	0.0070829922
41	0xbd9a6fef	-0.07540881
42	0x3d7c2ccd	0.061566163
43	0xbdcede6a	-0.10101016
44	0xbd0e7f85	-0.03478958
45	0x3dc4bd0e	0.09606372
46	0xbe8b8c87	-0.2725565
47	0xbd809c57	-0.062798195
48	0xbdb5913d	-0.08865593
49	0x3da33908	0.07969862
50	0xbe8dc2e5	-0.27687755
51	0x3cf21845	0.029552588
52	0x3e2693b1	0.16267277
53	0x3dadc22d	0.08484302
54	0xbddc2246	-0.10748725
55	0x3e182537	0.14857946
56	0x3d2a1b21	0.04152978
57	0x3b3dca86	0.0028959825
58	0xbd320358	-0.04346022
59	0xbde72107	-0.11285596
60	0x3e8aa4b7	0.27078792
61	0x3e30e12b	0.17273395
62	0xbc866154	-0.016403832
63	0x3d3f8874	0.04676099
64	0x3db9a1ba	0.0906405
65	0xbddaeabe	-0.10689305
66	0x3e981b3a	0.29708272
67	0xbdc163e1	-0.094428785
68	0xbd52de7f	-0.05148172
69	0xbe08df76	-0.13366494
70	0xbdd81ae0	-0.10552001
71	0x3e0882b1	0.13331105
72	0x3c40796c	0.011747699
73	0x3ee90633	0.45512542
74	0x3e0303cb	0.12794416
75	0xbc53ac0b	-0.012919436
76	0xbd41aabe	-0.047281973
77	0xbdcc764e	-0.09983502
78	0x3e342716	0.17593035
79	0xbdb26153	-0.08709969
80	0xbd9d68b5	-0.07685987
81	0xbdade3d5	-0.08490721
82	0xbccc24ee	-0.024919953
83	0x3e768426	0.24073848

layers.5.weight f4 [9, 84]
0	0xbe7e9f22	-0.24865392
1	0xbe651942	-0.22372916
2	0xbe493fec	-0.1965329
3	0xbea1ddd4	-0.31614554
4	0x3d612444	0.054966226
5	0xbe275de4	-0.1634441
6	0x3dbaf863	0.09129407
7	0xbe827374	-0.2547871
8	0xbd78e8a8	-0.060768753
9	0x3e992dc6	0.29917735
10	0xbc6aa5f7	-0.014321796
11	0x3d7176d1	0.058951203
12	0xbcf86697	-0.030322356
13	0xbddf2400	-0.10895538
14	0xbe4cf699	-0.20015945
15	0x3e3e6ac5	0.18595417
16	0x3d8d59a8	0.06901866
17	0x3cdd8885	0.027042637
18	0xbe851efe	-0.26000208
19	0xbe036b00	-0.12833786
20	0xbc661a78	-0.014044397
21	0x3e18e397	0.14930569
22	0xbd675d44	-0.05648543
23	0xbe4c73fa	-0.19966117
24	0x3d52af2a	0.05143658
25	0xbe305b27	-0.17222272
26	0xbe8bf243	-0.2733327
27	0x3e29368c	0.16524714
28	0xbcf8e190	-0.030380994
29	0x3caee10b	0.021347543
30	0x3e69ddab	0.22838466
31	0x3c7a0dff	0.015262126
32	0x3dfdd4be	0.12394093
33	0x3ded61b1	0.11590899
34	0xbe3fa6f6	-0.18716034
35	0xbe8928be	-0.26788896
36	0x3dc38df4	0.0954856
37	0x3e2239e0	0.1584239
38	0xbe3168a6	-0.17325076
39	0x3df71d9c	0.120661944
40	0xbdb841b3	-0.08996906
41	0x3e150602	0.14553073
42	0xbe1b344f	-0.15156673
43	0xbdb6034d	-0.08887348
44	0x3e3ceb2e	0.18449089
45	0xbd60e7a8	-0.054908425
46	0x3df65ca5	0.12029389
47	0x3d13c258	0.036074013
48	0xbe65e3b9	-0.2245015
49	0x3e09457f	0.13405417
50	0xbac22c2e	-0.0014814192
51	0xbe4a89ee	-0.19779179
52	0xbe28b9bc	-0.16477102
53	0x3d8d5d95	0.06902615
54	0x3d90c858	0.070694625
55	0xbe45cad4	-0.19315654
56	0x3db093f0	0.08621967
57	0xbd227f65	-0.039672274
58	0x3dfc364b	0.12315043
59	0x3e152084	0.14563185
60	0xbed50655	-0.41606393
61	0x3d0e1e90	0.034697115
62	0xbde280b6	-0.11059706
63	0xbd18f6e3	-0.037344825
64	0x3d0ff235	0.035143096
65	0x3d93efeb	0.07223495
66	0xbe33d050	-0.17559934
67	0xbd8e3ccf	-0.06945192
68	0xbe76b4b0	-0.24092364
69	0xbda56b93	-0.08077159
70	0xbd0ac36e	-0.033877783
71	0xbd33434f	-0.043765362
72	0x3de3baee	0.111196384
73	0xbef24d47	-0.47324583
74	0xbe27dcc9	-0.16392817
75	0x3ab05444	0.0013452847
76	0x3ced9380	0.029000998
77	0x3c8f74e9	0.017511802
78	0xbe53ee3a	-0.20696345
79	0x3c8efefe	0.017455574
80	0xbd80976a	-0.0627888
81	0xbd573132	-0.05253715
82	0x3d262555	0.040562946
83	0xbe3673c9	-0.17817606
84	0x3dc15ba0	0.09441304
85	0x3e175292	0.14777592
86	0x3e29f550	0.16597486
87	0xbe622fda	-0.22088566
88	0xbe212063	-0.15735011
89	0xbd9d1fae	-0.07672058
90	0x3bb6fce7	0.0055843475
91	0x3cd8c2bb	0.026460042
92	0x3e131449	0.14363207
93	0x3d0d9f68	0.03457585
94	0x3d895f90	0.0670768
95	0x3d356b98	0.044292063
96	0xbdf50968	-0.11964685
97	0xbcbb2bac	-0.022847973
98	0x3dfe9e39	0.12432522
99	0xbd140cd0	-0.03614503
100	0x3d8a5b3b	0.06755682
101	0xbc81e69a	-0.01585703
102	0xbe5c89ab	-0.21536891
103	0x3e82d874	0.25555766
104	0x3cc0b3c2	0.023523215
105	0xbc8d092e	-0.017216291
106	0x3d8ccbf3	0.06874838
107	0xbe281fb4	-0.16418344
108	0xbb5171a1	-0.0031958597
109	0x3e2132da	0.15742055
110	0xbdf0487f	-0.117325775
111	0xbca10460	-0.019655406
112	0x3d53b2b2	0.05168409
113	0x3cef3c46	0.029203545
114	0x3e423b34	0.18967897
115	0x3d1626c1	0.036658052
116	0xbe3576b9	-0.1772107
117	0xbd980141	-0.07422114
118	0x3e2bb8e0	0.16769743
119	0xbd84f496	-0.064919636
120	0x3d96625a	0.07342978
121	0x3e0c032e	0.13673088
122	0x3e2fe49b	0.1717705
123	0x3d2bfd7c	0.04198979
124	0xbdf85b6a	-0.12126811
125	0xbe1c4a0f	-0.15262626
126	0x3dbe6e07	0.0929833
127	0x3cdcb072	0.026939604
128	0xbe0acf24	-0.1355558
129	0x3dc3b647	0.09556251
130	0x3dd26a8b	0.10274228
131	0xbdd40760	-0.10352969
132	0x3d95c622	0.073131815
133	0xbdaa5693	-0.08317294
134	0x3d2adeb5	0.041716296
135	0xbc94c464	-0.018160053
136	0xbd2af14d	-0.04173403
137	0x3e7b027f	0.24512671
138	0xbe584ac5	-0.21122272
139	0x3db215be	0.08695553
140	0xbdab2f3e	-0.0835862
141	0xbd59ce4a	-0.05317525
142	0x3d72b7f1	0.05925745
143	0x3c8e75ff	0.01739025
144	0x3cd8c037	0.026458843
145	0xbd21f644	-0.039541498
146	0xbbf7d49f	-0.007563188
147	0xbe077a73	-0.13230304
148	0x3e22e2c4	0.15906817
149	0x3ca02921	0.019550862
150	0x3e003a00	0.12522125
151	0xbca23bfe	-0.019803997
152	0x3bc588cd	0.006028271
153	0x3de5ba2e	0.112171516
154	0xbca4ac6a	-0.020101745
155	0xbe4026c6	-0.18764791
156	0xbdbf33fd	-0.09336088
157	0xbde98094	-0.114014775
158	0xbe354383	-0.17701535
159	0xbcf50e80	-0.02991414
160	0x3db30382	0.087409034
161	0x3dab0377	0.0835027
162	0x3e152804	0.14566046
163	0xbd404de2	-0.046949275
164	0x3d083012	0.03324897
165	0xbb01ab3e	-0.0019785906
166	0xbd8cebf6	-0.068809435
167	0xbe7dbae7	-0.24778329
168	0xbe197962	-0.1498771
169	0xbdab40d0	-0.083619714
170	0x3e270af6	0.16312775
171	0x3e73b79d	0.23800512
172	0xbdfce1fe	-0.12347792
173	0xbd6cb303	-0.057787906
174	0x3ced041b	0.028932622
175	0x3ddd05f4	0.10792151
176	0x3e54b7f6	0.207733
177	0x3cd98422	0.026552264
178	0x3deed607	0.11661916
179	0xbc6776ca	-0.014127443
180	0xbe01bced	-0.12669726
181	0xbd26e224	-0.04074301
182	0x3dcd27c4	0.1001735
183	0xbe249d49	-0.16075625
184	0x3d5e2753	0.05423672
185	0xbe64730b	-0.2230951
186	0xbd4f43df	-0.050601836
187	0xbe5cf1e7	-0.21576653
188	0x3d6d43d0	0.057926
189	0x3c290aea	0.0103175435
190	0x3db5b22f	0.088718764
191	0xbd09f02f	-0.033676323
192	0xbd3cd390	-0.0461002
193	0xbda4cfb4	-0.08047429
194	0x3c6f6f0e	0.01461388
195	0x3da875df	0.08225607
196	0xbdbd6a60	-0.09248805
197	0xbddbfc58	-0.1074149
198	0xbdce238d	-0.100653745
199	0x3e026578	0.1273402
200	0x3d25809f	0.040405866
201	0xbd27f3c2	-0.04100395
202	0xbe33ae00	-0.17546844
203	0xbdd05cf0	-0.101739764
204	0xbd7ca347	-0.06167915
205	0xbe6dc49e	-0.23219535
206	0xbe37afc3	-0.17938142
207	0xbd70d6f1	-0.058798734
208	0xbdf0e525	-0.11762456
209	0x3e64db4c	0.2234928
210	0xbd137270	-0.035997808
211	0xbdfd17ae	-0.12358032
212	0xbeac6f7f	-0.33678815
213	0xbe94cd0f	-0.29062697
214	0xbdbe8b32	-0.09303893
215	0xbceb1104	-0.028694637
216	0x3e29cf9e	0.16583106
217	0xbc6a0cd6	-0.014285287
218	0x3d455480	0.04817629
219	0xbd88aaea	-0.06673224
220	0xbe39597b	-0.1810054
221	0xbdbbd0d3	-0.091706894
222	0x3dd7b2d2	0.10532154
223	0xbe09121c	-0.13385814
224	0x3daeb0d6	0.085298225
225	0xbe1e3abc	-0.15452093
226	0xbe332580	-0.17494774
227	0xbe3e7725	-0.18600138
228	0x3d666520	0.056248784
229	0x3e5c4442	0.21510413
230	0x3d817255	0.06320635
231	0xbc0efb10	-0.00872685
232	0x3dee45b1	0.11634386
233	0x3d5a30d0	0.053269207
234	0xbc21ab20	-0.00986746
235	0xbc8eb867	-0.017421914
236	0x3be1ca8a	0.0068905996
237	0xbe2190d0	-0.15777898
238	0x3c950387	0.018190159
239	0xbe84b99a	-0.25922853
240	0xbc141022	-0.0090370495
241	0xbe38cd90	-0.18047166
242	0xbe8cb9c9	-0.27485493
243	0x3da3ecec	0.08004174
244	0x3d97f0f5	0.07419006
245	0xbc9cb207	-0.019127859
246	0x3c61e8ba	0.0137883965
247	0x3ce8acf3	0.028402781
248	0x3cafb752	0.021449719
249	0x3e4855c2	0.19563964
250	0x3b9a339b	0.004705859
251	0x3db294df	0.08719801
252	0xbe746640	-0.2386713
253	0xbe56e01f	-0.20983933
254	0xbd6cbb5c	-0.057795867
255	0xbe572dfc	-0.21013635

layers.5.bias f4 [9]
0	0xbdae6a9d	-0.085164286
1	0x3ba213e9	0.004946221
2	0xbcb469f2	-0.022023175
3	0xbddcfe18	-0.10790652
4	0xbe136ee8	-0.14397776
5	0x3e862cd5	0.2620608
6	0x3cd6bb70	0.026212424
7	0x3e50ef85	0.2040387
8	0xbd9ef39a	-0.07761307
